…
2026-03-11 22:59:57 [INFO]: lr: 0.001
2026-03-11 22:59:57 [INFO]: weight_decay: 0.0001
2026-03-11 22:59:57 [INFO]: use_simple_gating: True
2026-03-11 22:59:57 [INFO]: simple_gating_mode: concat
2026-03-11 22:59:57 [INFO]: feat_drop: 0
2026-03-11 22:59:57 [INFO]: patience: 10
2026-03-11 22:59:57 [INFO]: ft_num: 5
2026-03-11 22:59:57 [INFO]: aggregator: mean
2026-03-11 22:59:58 [INFO]: MainModel(
  (encoders): ModuleDict(
    (metric): Encoder(
      (graph_encoder): SAGEEncoder(
        (sage_layers): ModuleList(
          (0): SAGEConv(
            (feat_drop): Dropout(p=0, inplace=False)
            (fc_neigh): Linear(in_features=128, out_features=64, bias=False)
            (fc_self): Linear(in_features=128, out_features=64, bias=False)
          )
          (1): SAGEConv(
            (feat_drop): Dropout(p=0, inplace=False)
            (fc_neigh): Linear(in_features=64, out_features=32, bias=False)
            (fc_self): Linear(in_features=64, out_features=32, bias=False)
          )
        )
        (pool): MaxPooling()
      )
    )
    (trace): Encoder(
      (graph_encoder): SAGEEncoder(
        (sage_layers): ModuleList(
          (0): SAGEConv(
            (feat_drop): Dropout(p=0, inplace=False)
            (fc_neigh): Linear(in_features=128, out_features=64, bias=False)
            (fc_self): Linear(in_features=128, out_features=64, bias=False)
          )
          (1): SAGEConv(
            (feat_drop): Dropout(p=0, inplace=False)
            (fc_neigh): Linear(in_features=64, out_features=32, bias=False)
            (fc_self): Linear(in_features=64, out_features=32, bias=False)
          )
        )
        (pool): MaxPooling()
      )
    )
    (log): Encoder(
      (graph_encoder): SAGEEncoder(
        (sage_layers): ModuleList(
          (0): SAGEConv(
            (feat_drop): Dropout(p=0, inplace=False)
            (fc_neigh): Linear(in_features=128, out_features=64, bias=False)
            (fc_self): Linear(in_features=128, out_features=64, bias=False)
          )
          (1): SAGEConv(
            (feat_drop): Dropout(p=0, inplace=False)
            (fc_neigh): Linear(in_features=64, out_features=32, bias=False)
            (fc_self): Linear(in_features=64, out_features=32, bias=False)
          )
        )
        (pool): MaxPooling()
      )
    )
  )
  (locator): Voter(
    (net): FullyConnected(
      (net): Sequential(
        (0): Linear(in_features=96, out_features=64, bias=True)
        (1): ReLU()
        (2): Linear(in_features=64, out_features=1, bias=True)
      )
    )
  )
  (typeClassifier): Classifier(
    (net): FullyConnected(
      (net): Sequential(
        (0): Linear(in_features=96, out_features=64, bias=True)
        (1): ReLU()
        (2): Linear(in_features=64, out_features=5, bias=True)
      )
    )
  )
)
2026-03-11 22:59:58 [INFO]: Start training for 500 epochs.
2026-03-11 22:59:58 [DEBUG]: con_loss: 2.846, RCA_loss: 2.246, TC_loss: 1.555
2026-03-11 22:59:59 [INFO]: Epoch 0 done. Loss: 6.096, Time per epoch: 0.895[s]
2026-03-11 22:59:59 [INFO]: GateMode: concat
2026-03-11 22:59:59 [INFO]: Gate[FTI]: metric:0.333, trace:0.333, log:0.334
…
