…
2026-03-11 22:28:47 [INFO]: linear_hidden: [64]
2026-03-11 22:28:47 [INFO]: lr: 0.001
2026-03-11 22:28:47 [INFO]: weight_decay: 0.0001
2026-03-11 22:28:47 [INFO]: use_simple_gating: True
2026-03-11 22:28:47 [INFO]: feat_drop: 0
2026-03-11 22:28:47 [INFO]: patience: 10
2026-03-11 22:28:47 [INFO]: ft_num: 5
2026-03-11 22:28:47 [INFO]: aggregator: mean
2026-03-11 22:28:47 [INFO]: MainModel(
  (encoders): ModuleDict(
    (metric): Encoder(
      (graph_encoder): SAGEEncoder(
        (sage_layers): ModuleList(
          (0): SAGEConv(
            (feat_drop): Dropout(p=0, inplace=False)
            (fc_neigh): Linear(in_features=128, out_features=64, bias=False)
            (fc_self): Linear(in_features=128, out_features=64, bias=False)
          )
          (1): SAGEConv(
            (feat_drop): Dropout(p=0, inplace=False)
            (fc_neigh): Linear(in_features=64, out_features=32, bias=False)
            (fc_self): Linear(in_features=64, out_features=32, bias=False)
          )
        )
        (pool): MaxPooling()
      )
    )
    (trace): Encoder(
      (graph_encoder): SAGEEncoder(
        (sage_layers): ModuleList(
          (0): SAGEConv(
            (feat_drop): Dropout(p=0, inplace=False)
            (fc_neigh): Linear(in_features=128, out_features=64, bias=False)
            (fc_self): Linear(in_features=128, out_features=64, bias=False)
          )
          (1): SAGEConv(
            (feat_drop): Dropout(p=0, inplace=False)
            (fc_neigh): Linear(in_features=64, out_features=32, bias=False)
            (fc_self): Linear(in_features=64, out_features=32, bias=False)
          )
        )
        (pool): MaxPooling()
      )
    )
    (log): Encoder(
      (graph_encoder): SAGEEncoder(
        (sage_layers): ModuleList(
          (0): SAGEConv(
            (feat_drop): Dropout(p=0, inplace=False)
            (fc_neigh): Linear(in_features=128, out_features=64, bias=False)
            (fc_self): Linear(in_features=128, out_features=64, bias=False)
          )
          (1): SAGEConv(
            (feat_drop): Dropout(p=0, inplace=False)
            (fc_neigh): Linear(in_features=64, out_features=32, bias=False)
            (fc_self): Linear(in_features=64, out_features=32, bias=False)
          )
        )
        (pool): MaxPooling()
      )
    )
  )
  (locator): Voter(
    (net): FullyConnected(
      (net): Sequential(
        (0): Linear(in_features=32, out_features=64, bias=True)
        (1): ReLU()
        (2): Linear(in_features=64, out_features=1, bias=True)
      )
    )
  )
  (typeClassifier): Classifier(
    (net): FullyConnected(
      (net): Sequential(
        (0): Linear(in_features=32, out_features=64, bias=True)
        (1): ReLU()
        (2): Linear(in_features=64, out_features=5, bias=True)
      )
    )
  )
)
2026-03-11 22:28:47 [INFO]: Start training for 500 epochs.
2026-03-11 22:28:47 [DEBUG]: con_loss: 2.846, RCA_loss: 2.249, TC_loss: 2.039
2026-03-11 22:28:48 [INFO]: Epoch 0 done. Loss: 6.340, Time per epoch: 0.942[s]
2026-03-11 22:28:48 [INFO]: Gate[FTI]: metric:0.333, trace:0.334, log:0.333
2026-03-11 22:28:48 [INFO]: Gate[RCL]: metric:0.333, trace:0.334, log:0.334
…
