…
2026-03-12 00:44:23 [INFO]: lr: 0.001
2026-03-12 00:44:23 [INFO]: weight_decay: 0.0001
2026-03-12 00:44:23 [INFO]: use_simple_gating: True
2026-03-12 00:44:23 [INFO]: simple_gating_mode: concat
2026-03-12 00:44:23 [INFO]: feat_drop: 0
2026-03-12 00:44:23 [INFO]: patience: 10
2026-03-12 00:44:23 [INFO]: ft_num: 5
2026-03-12 00:44:23 [INFO]: aggregator: mean
2026-03-12 00:44:23 [INFO]: MainModel(
  (encoders): ModuleDict(
    (trace): Encoder(
      (graph_encoder): SAGEEncoder(
        (sage_layers): ModuleList(
          (0): SAGEConv(
            (feat_drop): Dropout(p=0, inplace=False)
            (fc_neigh): Linear(in_features=128, out_features=64, bias=False)
            (fc_self): Linear(in_features=128, out_features=64, bias=False)
          )
          (1): SAGEConv(
            (feat_drop): Dropout(p=0, inplace=False)
            (fc_neigh): Linear(in_features=64, out_features=32, bias=False)
            (fc_self): Linear(in_features=64, out_features=32, bias=False)
          )
        )
        (pool): MaxPooling()
      )
    )
    (log): Encoder(
      (graph_encoder): SAGEEncoder(
        (sage_layers): ModuleList(
          (0): SAGEConv(
            (feat_drop): Dropout(p=0, inplace=False)
            (fc_neigh): Linear(in_features=128, out_features=64, bias=False)
            (fc_self): Linear(in_features=128, out_features=64, bias=False)
          )
          (1): SAGEConv(
            (feat_drop): Dropout(p=0, inplace=False)
            (fc_neigh): Linear(in_features=64, out_features=32, bias=False)
            (fc_self): Linear(in_features=64, out_features=32, bias=False)
          )
        )
        (pool): MaxPooling()
      )
    )
  )
  (locator): Voter(
    (net): FullyConnected(
      (net): Sequential(
        (0): Linear(in_features=64, out_features=64, bias=True)
        (1): ReLU()
        (2): Linear(in_features=64, out_features=1, bias=True)
      )
    )
  )
  (typeClassifier): Classifier(
    (net): FullyConnected(
      (net): Sequential(
        (0): Linear(in_features=64, out_features=64, bias=True)
        (1): ReLU()
        (2): Linear(in_features=64, out_features=5, bias=True)
      )
    )
  )
)
2026-03-12 00:44:23 [INFO]: Start training for 500 epochs.
2026-03-12 00:44:24 [DEBUG]: con_loss: 1.100, RCA_loss: 2.231, TC_loss: 1.743
2026-03-12 00:44:24 [INFO]: Epoch 0 done. Loss: 5.309, Time per epoch: 0.947[s]
2026-03-12 00:44:24 [INFO]: GateMode: concat
2026-03-12 00:44:24 [INFO]: Gate[FTI]: trace:0.500, log:0.500
2026-03-12 00:44:24 [INFO]: Gate[RCL]: trace:0.500, log:0.500
…
