…
2026-03-12 00:45:44 [INFO]: lr: 0.001
2026-03-12 00:45:44 [INFO]: weight_decay: 0.0001
2026-03-12 00:45:44 [INFO]: use_simple_gating: True
2026-03-12 00:45:44 [INFO]: simple_gating_mode: concat
2026-03-12 00:45:44 [INFO]: feat_drop: 0
2026-03-12 00:45:44 [INFO]: patience: 10
2026-03-12 00:45:44 [INFO]: ft_num: 7
2026-03-12 00:45:44 [INFO]: aggregator: mean
2026-03-12 00:45:44 [INFO]: MainModel(
  (encoders): ModuleDict(
    (trace): Encoder(
      (graph_encoder): SAGEEncoder(
        (sage_layers): ModuleList(
          (0): SAGEConv(
            (feat_drop): Dropout(p=0, inplace=False)
            (fc_neigh): Linear(in_features=128, out_features=64, bias=False)
            (fc_self): Linear(in_features=128, out_features=64, bias=False)
          )
          (1): SAGEConv(
            (feat_drop): Dropout(p=0, inplace=False)
            (fc_neigh): Linear(in_features=64, out_features=32, bias=False)
            (fc_self): Linear(in_features=64, out_features=32, bias=False)
          )
        )
        (pool): MaxPooling()
      )
    )
    (log): Encoder(
      (graph_encoder): SAGEEncoder(
        (sage_layers): ModuleList(
          (0): SAGEConv(
            (feat_drop): Dropout(p=0, inplace=False)
            (fc_neigh): Linear(in_features=128, out_features=64, bias=False)
            (fc_self): Linear(in_features=128, out_features=64, bias=False)
          )
          (1): SAGEConv(
            (feat_drop): Dropout(p=0, inplace=False)
            (fc_neigh): Linear(in_features=64, out_features=32, bias=False)
            (fc_self): Linear(in_features=64, out_features=32, bias=False)
          )
        )
        (pool): MaxPooling()
      )
    )
  )
  (locator): Voter(
    (net): FullyConnected(
      (net): Sequential(
        (0): Linear(in_features=64, out_features=64, bias=True)
        (1): ReLU()
        (2): Linear(in_features=64, out_features=1, bias=True)
      )
    )
  )
  (typeClassifier): Classifier(
    (net): FullyConnected(
      (net): Sequential(
        (0): Linear(in_features=64, out_features=64, bias=True)
        (1): ReLU()
        (2): Linear(in_features=64, out_features=7, bias=True)
      )
    )
  )
)
2026-03-12 00:45:44 [INFO]: Start training for 500 epochs.
2026-03-12 00:45:44 [DEBUG]: con_loss: 1.081, RCA_loss: 2.613, TC_loss: 1.924
2026-03-12 00:45:45 [DEBUG]: con_loss: 1.066, RCA_loss: 2.509, TC_loss: 1.915
2026-03-12 00:45:45 [INFO]: Epoch 0 done. Loss: 5.550, Time per epoch: 1.079[s]
2026-03-12 00:45:45 [INFO]: GateMode: concat
…
